{"architecture":{"class_name":"Functional","config":{"name":"sequential","layers":[{"class_name":"InputLayer","config":{"batch_input_shape":[null,18,18,6],"dtype":"float32","sparse":false,"ragged":false,"name":"input_1"},"name":"input_1","inbound_nodes":[]},{"class_name":"Conv2D","config":{"name":"conv2d","trainable":true,"batch_input_shape":[null,18,18,6],"dtype":"float32","filters":8,"kernel_size":[5,5],"strides":[1,1],"padding":"valid","data_format":"channels_last","dilation_rate":[1,1],"groups":1,"activation":"relu","use_bias":true,"kernel_initializer":{"class_name":"GlorotUniform","config":{"seed":null}},"bias_initializer":{"class_name":"Zeros","config":{}},"kernel_regularizer":null,"bias_regularizer":null,"activity_regularizer":null,"kernel_constraint":null,"bias_constraint":null},"name":"conv2d","inbound_nodes":[[["input_1",0,0,{}]]]},{"class_name":"MaxPooling2D","config":{"name":"max_pooling2d","trainable":true,"dtype":"float32","pool_size":[2,2],"padding":"valid","strides":[2,2],"data_format":"channels_last"},"name":"max_pooling2d","inbound_nodes":[[["conv2d",0,0,{}]]]},{"class_name":"Flatten","config":{"name":"flatten","trainable":true,"dtype":"float32","data_format":"channels_last"},"name":"flatten","inbound_nodes":[[["max_pooling2d",0,0,{}]]]},{"class_name":"Dense","config":{"name":"dense","trainable":true,"dtype":"float32","units":16,"activation":"relu","use_bias":true,"kernel_initializer":{"class_name":"GlorotUniform","config":{"seed":null}},"bias_initializer":{"class_name":"Zeros","config":{}},"kernel_regularizer":null,"bias_regularizer":null,"activity_regularizer":null,"kernel_constraint":null,"bias_constraint":null},"name":"dense","inbound_nodes":[[["flatten",0,0,{}]]]},{"class_name":"Dense","config":{"name":"dense_1","trainable":true,"dtype":"float32","units":8,"activation":"relu","use_bias":true,"kernel_initializer":{"class_name":"GlorotUniform","config":{"seed":null}},"bias_initializer":{"class_name":"Zeros","config":{}},"kernel_regularizer":null,"bias_regularizer":null,"activity_regularizer":null,"kernel_constraint":null,"bias_constraint":null},"name":"dense_1","inbound_nodes":[[["dense",0,0,{}]]]},{"class_name":"Dense","config":{"name":"dense_2","trainable":true,"dtype":"float32","units":8,"activation":"linear","use_bias":true,"kernel_initializer":{"class_name":"GlorotUniform","config":{"seed":null}},"bias_initializer":{"class_name":"Zeros","config":{}},"kernel_regularizer":null,"bias_regularizer":null,"activity_regularizer":null,"kernel_constraint":null,"bias_constraint":null},"name":"dense_2","inbound_nodes":[[["dense_1",0,0,{}]]]},{"class_name":"Softmax","config":{"name":"softmax","trainable":true,"dtype":"float32","axis":-1},"name":"softmax","inbound_nodes":[[["dense_2",0,0,{}]]]}],"input_layers":[["input_1",0,0]],"output_layers":[["softmax",0,0]]},"keras_version":"2.10.0","backend":"tensorflow"},"image_data_format":"channels_last","input_shapes":[[18,18,6]],"output_shapes":[[8]],"tests":[{"inputs":[{"shape":[18,18,6],"values":["…","…","…","…","…","…","…","…","…","…","FJMbvkQygD92upm/N2drvfkDzD5ba1Y/nQEQP+laO7++9oC/5dGbP0p+JcCArFO/Frg5v0BM5b5j3+m+dfdbvZqczj/ewAtAHTGCvgvyHz8h5IY943phv6rpRD7THWY/"]}],"outputs":[{"shape":[8],"values":["nfy/O/kmAiv4VX4/nQsoOlzZhy0hWDk1iQqeMPqoaDM="]}]}],"trainable_params":{"conv2d":{"weights":["…","…","…","…","…","…","…"],"bias":["XwT7PAAAAAA01f09qMwyOmR68jwAAAAAhphFPWKXmD0="]},"dense":{"weights":["…","…","…","…","…","…","…","…","…","…","…","…","…","…","…","…","…","…","…","…","…","…","…","…","…","…","…","…","…","…","…","…","…"],"bias":["34RbPFA/eDw27Qs7yCSJvIuGn7wGpgA8lCtEu2LGND0kefs8hEEIvEzFj7uG2sa84D4BPRUR8byHSKG7xX82PA=="]},"dense_1":{"weights":["…"],"bias":["Du+qvf4gcLtEvYW9/wzNO6DgSj0AAAAAntUNPQAAAAA="]},"dense_2":{"weights":["…"],"bias":["0MDovaNya73A4Mm6dDcyvUb5LL3bCzG+qykjPvZOQz4="]}},"hash":"33338ffedfbae3b9a80a056a744a0bbf4a182900a7a89ce678ac897f34e4f6ab"}