{"architecture":{"class_name":"Functional","config":{"name":"sequential","layers":[{"class_name":"InputLayer","config":{"batch_input_shape":[null,18,18,6],"dtype":"float32","sparse":false,"ragged":false,"name":"input_1"},"name":"input_1","inbound_nodes":[]},{"class_name":"Conv2D","config":{"name":"conv2d","trainable":true,"batch_input_shape":[null,18,18,6],"dtype":"float32","filters":8,"kernel_size":[5,5],"strides":[1,1],"padding":"valid","data_format":"channels_last","dilation_rate":[1,1],"groups":1,"activation":"relu","use_bias":true,"kernel_initializer":{"class_name":"GlorotUniform","config":{"seed":null}},"bias_initializer":{"class_name":"Zeros","config":{}},"kernel_regularizer":null,"bias_regularizer":null,"activity_regularizer":null,"kernel_constraint":null,"bias_constraint":null},"name":"conv2d","inbound_nodes":[[["input_1",0,0,{}]]]},{"class_name":"MaxPooling2D","config":{"name":"max_pooling2d","trainable":true,"dtype":"float32","pool_size":[2,2],"padding":"valid","strides":[2,2],"data_format":"channels_last"},"name":"max_pooling2d","inbound_nodes":[[["conv2d",0,0,{}]]]},{"class_name":"Flatten","config":{"name":"flatten","trainable":true,"dtype":"float32","data_format":"channels_last"},"name":"flatten","inbound_nodes":[[["max_pooling2d",0,0,{}]]]},{"class_name":"Dense","config":{"name":"dense","trainable":true,"dtype":"float32","units":16,"activation":"relu","use_bias":true,"kernel_initializer":{"class_name":"GlorotUniform","config":{"seed":null}},"bias_initializer":{"class_name":"Zeros","config":{}},"kernel_regularizer":null,"bias_regularizer":null,"activity_regularizer":null,"kernel_constraint":null,"bias_constraint":null},"name":"dense","inbound_nodes":[[["flatten",0,0,{}]]]},{"class_name":"Dense","config":{"name":"dense_1","trainable":true,"dtype":"float32","units":8,"activation":"relu","use_bias":true,"kernel_initializer":{"class_name":"GlorotUniform","config":{"seed":null}},"bias_initializer":{"class_name":"Zeros","config":{}},"kernel_regularizer":null,"bias_regularizer":null,"activity_regularizer":null,"kernel_constraint":null,"bias_constraint":null},"name":"dense_1","inbound_nodes":[[["dense",0,0,{}]]]},{"class_name":"Dense","config":{"name":"dense_2","trainable":true,"dtype":"float32","units":8,"activation":"linear","use_bias":true,"kernel_initializer":{"class_name":"GlorotUniform","config":{"seed":null}},"bias_initializer":{"class_name":"Zeros","config":{}},"kernel_regularizer":null,"bias_regularizer":null,"activity_regularizer":null,"kernel_constraint":null,"bias_constraint":null},"name":"dense_2","inbound_nodes":[[["dense_1",0,0,{}]]]},{"class_name":"Softmax","config":{"name":"softmax","trainable":true,"dtype":"float32","axis":-1},"name":"softmax","inbound_nodes":[[["dense_2",0,0,{}]]]}],"input_layers":[["input_1",0,0]],"output_layers":[["softmax",0,0]]},"keras_version":"2.10.0","backend":"tensorflow"},"image_data_format":"channels_last","input_shapes":[[18,18,6]],"output_shapes":[[8]],"tests":[{"inputs":[{"shape":[18,18,6],"values":["…","…","…","…","…","…","…","…","…","…","FbuCvtNxkD5dkWI/vKVcvxIPOL/St9m/LiXlPrZccD/6WDw/wlQhv5ZIrr8PCBjA8mgsPlUNZr7tzsA+CjyXPZP9pD4tcsG/ndEIwKGeR7+dM9e+jSvrvgFkZ78e5r6/"]}],"outputs":[{"shape":[8],"values":["0vl/P1WmxDj1RKkylB6lLjmR+zRzKf8puI8iKch/+Sw="]}]}],"trainable_params":{"conv2d":{"weights":["…","…","…","…","…","…","…"],"bias":["RB8yvV34Aj0PTq28ZSUBPsm8Cz29/pY9gBSxPeSLL70="]},"dense":{"weights":["…","…","…","…","…","…","…","…","…","…","…","…","…","…","…","…","…","…","…","…","…","…","…","…","…","…","…","…","…","…","…","…","…"],"bias":["jbnEuzTlxrsmayw8of5kPZS8H71QXSg90hrrvGLqHrxMM0c9JYqMvIACWz1RPay8KvgmO6lARz0AAAAAWiQDPA=="]},"dense_1":{"weights":["…"],"bias":["Q9asPW/8Ij2Nkn070SMbPTC1Eb0bibc9XmWNPFiY+7w="]},"dense_2":{"weights":["…"],"bias":["qOCivsi5ij73+fM8yLFbvWUKOj5+vBY+L8cMvsYKWL4="]}},"hash":"da2398fcedce269743e399b2e94859298aa3f4791f2166dfec90f232c9d4c119"}