{"architecture":{"class_name":"Functional","config":{"name":"sequential","layers":[{"class_name":"InputLayer","config":{"batch_input_shape":[null,18,18,6],"dtype":"float32","sparse":false,"ragged":false,"name":"input_1"},"name":"input_1","inbound_nodes":[]},{"class_name":"Conv2D","config":{"name":"conv2d","trainable":true,"batch_input_shape":[null,18,18,6],"dtype":"float32","filters":8,"kernel_size":[5,5],"strides":[1,1],"padding":"valid","data_format":"channels_last","dilation_rate":[1,1],"groups":1,"activation":"relu","use_bias":true,"kernel_initializer":{"class_name":"GlorotUniform","config":{"seed":null}},"bias_initializer":{"class_name":"Zeros","config":{}},"kernel_regularizer":null,"bias_regularizer":null,"activity_regularizer":null,"kernel_constraint":null,"bias_constraint":null},"name":"conv2d","inbound_nodes":[[["input_1",0,0,{}]]]},{"class_name":"MaxPooling2D","config":{"name":"max_pooling2d","trainable":true,"dtype":"float32","pool_size":[2,2],"padding":"valid","strides":[2,2],"data_format":"channels_last"},"name":"max_pooling2d","inbound_nodes":[[["conv2d",0,0,{}]]]},{"class_name":"Flatten","config":{"name":"flatten","trainable":true,"dtype":"float32","data_format":"channels_last"},"name":"flatten","inbound_nodes":[[["max_pooling2d",0,0,{}]]]},{"class_name":"Dense","config":{"name":"dense","trainable":true,"dtype":"float32","units":18,"activation":"relu","use_bias":true,"kernel_initializer":{"class_name":"GlorotUniform","config":{"seed":null}},"bias_initializer":{"class_name":"Zeros","config":{}},"kernel_regularizer":null,"bias_regularizer":null,"activity_regularizer":null,"kernel_constraint":null,"bias_constraint":null},"name":"dense","inbound_nodes":[[["flatten",0,0,{}]]]},{"class_name":"Dense","config":{"name":"dense_1","trainable":true,"dtype":"float32","units":9,"activation":"relu","use_bias":true,"kernel_initializer":{"class_name":"GlorotUniform","config":{"seed":null}},"bias_initializer":{"class_name":"Zeros","config":{}},"kernel_regularizer":null,"bias_regularizer":null,"activity_regularizer":null,"kernel_constraint":null,"bias_constraint":null},"name":"dense_1","inbound_nodes":[[["dense",0,0,{}]]]},{"class_name":"Dense","config":{"name":"dense_2","trainable":true,"dtype":"float32","units":9,"activation":"linear","use_bias":true,"kernel_initializer":{"class_name":"GlorotUniform","config":{"seed":null}},"bias_initializer":{"class_name":"Zeros","config":{}},"kernel_regularizer":null,"bias_regularizer":null,"activity_regularizer":null,"kernel_constraint":null,"bias_constraint":null},"name":"dense_2","inbound_nodes":[[["dense_1",0,0,{}]]]},{"class_name":"Softmax","config":{"name":"softmax","trainable":true,"dtype":"float32","axis":-1},"name":"softmax","inbound_nodes":[[["dense_2",0,0,{}]]]}],"input_layers":[["input_1",0,0]],"output_layers":[["softmax",0,0]]},"keras_version":"2.10.0","backend":"tensorflow"},"image_data_format":"channels_last","input_shapes":[[18,18,6]],"output_shapes":[[9]],"tests":[{"inputs":[{"shape":[18,18,6],"values":["…","…","…","…","…","…","…","…","…","…","pxaBPuooP79Rkh2+WShMPQMPJL5xPIQ/lU+Av3BPqj/LVHO/v4yiv72Kyb645L0+XFm+v18HPj+4W6q/rICJPrkMor8ZJjM/3VPIvSWMuz1p/Js/pxjtP9kZP79zSQRA"]}],"outputs":[{"shape":[9],"values":["FozUPT4QrDil9Ec7YND6OAGVozk9ebM4YoIAPhrccz6lZwc/"]}]}],"trainable_params":{"conv2d":{"weights":["…","…","…","…","…","…","…"],"bias":["9aYivEzQoj18OLQ8xc+LuxgXGTq/bTU9D08gPQAAAAA="]},"dense":{"weights":["…","…","…","…","…","…","…","…","…","…","…","…","…","…","…","…","…","…","…","…","…","…","…","…","…","…","…","…","…","…","…","…","…","…","…","…","…"],"bias":["1+bEu6ZqhT3DPxI93GfFu8ALVDzIINM8ZI8MvWeqxzwHuzo6Z0izuhPN5LsAAAAAONlwvAaunrqeAzG7wBQfvbtzcjsT6Cw9"]},"dense_1":{"weights":["…"],"bias":["+L/Hu9f9tztsPIq8xh0GPfWKLj2jXCW9oa8cvbHP9Dzclfs8"]},"dense_2":{"weights":["…"],"bias":["UPChPUvhGr7f+gE93LqZvASNGj3KcZI9d6aCOyw5773bQhe9"]}},"hash":"13fc654f8b9ee948c55ef93f4466ca94477bf5395879cc75f120a7bd46d12c87"}