{"architecture":{"class_name":"Functional","config":{"name":"sequential","layers":[{"class_name":"InputLayer","config":{"batch_input_shape":[null,18,18,6],"dtype":"float32","sparse":false,"ragged":false,"name":"input_1"},"name":"input_1","inbound_nodes":[]},{"class_name":"Conv2D","config":{"name":"conv2d","trainable":true,"batch_input_shape":[null,18,18,6],"dtype":"float32","filters":8,"kernel_size":[5,5],"strides":[1,1],"padding":"valid","data_format":"channels_last","dilation_rate":[1,1],"groups":1,"activation":"relu","use_bias":true,"kernel_initializer":{"class_name":"GlorotUniform","config":{"seed":null}},"bias_initializer":{"class_name":"Zeros","config":{}},"kernel_regularizer":null,"bias_regularizer":null,"activity_regularizer":null,"kernel_constraint":null,"bias_constraint":null},"name":"conv2d","inbound_nodes":[[["input_1",0,0,{}]]]},{"class_name":"MaxPooling2D","config":{"name":"max_pooling2d","trainable":true,"dtype":"float32","pool_size":[2,2],"padding":"valid","strides":[2,2],"data_format":"channels_last"},"name":"max_pooling2d","inbound_nodes":[[["conv2d",0,0,{}]]]},{"class_name":"Flatten","config":{"name":"flatten","trainable":true,"dtype":"float32","data_format":"channels_last"},"name":"flatten","inbound_nodes":[[["max_pooling2d",0,0,{}]]]},{"class_name":"Dense","config":{"name":"dense","trainable":true,"dtype":"float32","units":18,"activation":"relu","use_bias":true,"kernel_initializer":{"class_name":"GlorotUniform","config":{"seed":null}},"bias_initializer":{"class_name":"Zeros","config":{}},"kernel_regularizer":null,"bias_regularizer":null,"activity_regularizer":null,"kernel_constraint":null,"bias_constraint":null},"name":"dense","inbound_nodes":[[["flatten",0,0,{}]]]},{"class_name":"Dense","config":{"name":"dense_1","trainable":true,"dtype":"float32","units":9,"activation":"relu","use_bias":true,"kernel_initializer":{"class_name":"GlorotUniform","config":{"seed":null}},"bias_initializer":{"class_name":"Zeros","config":{}},"kernel_regularizer":null,"bias_regularizer":null,"activity_regularizer":null,"kernel_constraint":null,"bias_constraint":null},"name":"dense_1","inbound_nodes":[[["dense",0,0,{}]]]},{"class_name":"Dense","config":{"name":"dense_2","trainable":true,"dtype":"float32","units":9,"activation":"linear","use_bias":true,"kernel_initializer":{"class_name":"GlorotUniform","config":{"seed":null}},"bias_initializer":{"class_name":"Zeros","config":{}},"kernel_regularizer":null,"bias_regularizer":null,"activity_regularizer":null,"kernel_constraint":null,"bias_constraint":null},"name":"dense_2","inbound_nodes":[[["dense_1",0,0,{}]]]},{"class_name":"Softmax","config":{"name":"softmax","trainable":true,"dtype":"float32","axis":-1},"name":"softmax","inbound_nodes":[[["dense_2",0,0,{}]]]}],"input_layers":[["input_1",0,0]],"output_layers":[["softmax",0,0]]},"keras_version":"2.10.0","backend":"tensorflow"},"image_data_format":"channels_last","input_shapes":[[18,18,6]],"output_shapes":[[9]],"tests":[{"inputs":[{"shape":[18,18,6],"values":["…","…","…","…","…","…","…","…","…","…","jZUBPippxz8A5do9ZRifPvz7WD/9FhI+/r2GvX8hfj+AmNs9eJz8Pgfukj59eVS/gAGuPcEbOT/cIAi/9BANvzLMzj7aUV4/FFTHvxKUjz8oAlK/z5wrP0h6Wb/Kh/o+"]}],"outputs":[{"shape":[9],"values":["X91/Pwm0Bym1fUA3H/CIKEU54znON2Y4EjFANx3UQDak9283"]}]}],"trainable_params":{"conv2d":{"weights":["…","…","…","…","…","…","…"],"bias":["nTTVPGXggTxHwYM9U83QPJ9VBTzeBhI9lISxu0iHtTw="]},"dense":{"weights":["…","…","…","…","…","…","…","…","…","…","…","…","…","…","…","…","…","…","…","…","…","…","…","…","…","…","…","…","…","…","…","…","…","…","…","…","…"],"bias":["lh0Mu6RdBrt5myc9s22+uy1VirtLnA665CP7vH7KBT0iyQG9XYNSvWNLkT24t0E9vmEVu1OyDr3MDbA8DwJIPaf2T7pdud+8"]},"dense_1":{"weights":["…"],"bias":["Y0DZPAAAAAB682O5thePvaM4hbt6mJ08Y2XYPFZpxLxLJQI+"]},"dense_2":{"weights":["…"],"bias":["JIqcvlrfrzzra829ekx/PYZYiD5/FWo+T5LOvSsEjb6Bp+28"]}},"hash":"cc6e473f891c4c0e7ff14003bb73692e935d40aae953d8d7b4f721e963587e7a"}